…
I0901 14:42:07.600508 71629 net.cpp:322] The NetState phase (1) differed from the phase (0) specified by a rule in layer data
I0901 14:42:07.600805 71629 net.cpp:49] Initializing net from parameters: 
name: "snowPlacesNet"
state {
  phase: TEST
}
layer {
  name: "data"
  type: "ImageData"
  top: "data"
  top: "label"
  include {
    phase: TEST
  }
  transform_param {
    mirror: false
    crop_size: 227
    mean_file: "/l/vision/wang203/bagmodel/model/placesCNN_upgraded/places205CNN_mean.binaryproto"
  }
  image_data_param {
    source: "/l/vision/wang203/bagmodel/data/snow.val"
    batch_size: 50
    new_height: 256
    new_width: 256
  }
}
layer {
  name: "conv1"
  type: "Convolution"
  bottom: "data"
  top: "conv1"
  param {
    lr_mult: 1
    decay_mult: 1
  }
  param {
    lr_mult: 2
    decay_mult: 0
  }
  convolution_param {
    num_output: 96
    kernel_size: 11
    stride: 4
    weight_filler {
      type: "gaussian"
      std: 0.01
    }
    bias_filler {
      type: "constant"
      value: 0
    }
  }
}
layer {
  name: "relu1"
  type: "ReLU"
  bottom: "conv1"
  top: "conv1"
}
layer {
  name: "pool1"
  type: "Pooling"
  bottom: "conv1"
  top: "pool1"
  pooling_param {
    pool: MAX
    kernel_size: 3
    stride: 2
  }
}
layer {
  name: "norm1"
  type: "LRN"
  bottom: "pool1"
  top: "norm1"
  lrn_param {
    local_size: 5
    alpha: 0.0001
    beta: 0.75
  }
}
layer {
  name: "conv2"
  type: "Convolution"
  bottom: "norm1"
  top: "conv2"
  param {
    lr_mult: 1
    decay_mult: 1
  }
  param {
    lr_mult: 2
    decay_mult: 0
  }
  convolution_param {
    num_output: 256
    pad: 2
    kernel_size: 5
    group: 2
    weight_filler {
      type: "gaussian"
      std: 0.01
    }
    bias_filler {
      type: "constant"
      value: 1
    }
  }
}
layer {
  name: "relu2"
  type: "ReLU"
  bottom: "conv2"
  top: "conv2"
}
layer {
  name: "pool2"
  type: "Pooling"
  bottom: "conv2"
  top: "pool2"
  pooling_param {
    pool: MAX
    kernel_size: 3
    stride: 2
  }
}
layer {
  name: "norm2"
  type: "LRN"
  bottom: "pool2"
  top: "norm2"
  lrn_param {
    local_size: 5
    alpha: 0.0001
    beta: 0.75
  }
}
layer {
  name: "conv3"
  type: "Convolution"
  bottom: "norm2"
  top: "conv3"
  param {
    lr_mult: 1
    decay_mult: 1
  }
  param {
    lr_mult: 2
    decay_mult: 0
  }
  convolution_param {
    num_output: 384
    pad: 1
    kernel_size: 3
    weight_filler {
      type: "gaussian"
      std: 0.01
    }
    bias_filler {
      type: "constant"
      value: 0
    }
  }
}
layer {
  name: "relu3"
  type: "ReLU"
  bottom: "conv3"
  top: "conv3"
}
layer {
  name: "conv4"
  type: "Convolution"
  bottom: "conv3"
  top: "conv4"
  param {
    lr_mult: 1
    decay_mult: 1
  }
  param {
    lr_mult: 2
    decay_mult: 0
  }
  convolution_param {
    num_output: 384
    pad: 1
    kernel_size: 3
    group: 2
    weight_filler {
      type: "gaussian"
      std: 0.01
    }
    bias_filler {
      type: "constant"
      value: 1
    }
  }
}
layer {
  name: "relu4"
  type: "ReLU"
  bottom: "conv4"
  top: "conv4"
}
layer {
  name: "conv5"
  type: "Convolution"
  bottom: "conv4"
  top: "conv5"
  param {
    lr_mult: 1
    decay_mult: 1
  }
  param {
    lr_mult: 2
    decay_mult: 0
  }
  convolution_param {
    num_output: 256
    pad: 1
    kernel_size: 3
    group: 2
    weight_filler {
      type: "gaussian"
      std: 0.01
    }
    bias_filler {
      type: "constant"
      value: 1
    }
  }
}
layer {
  name: "relu5"
  type: "ReLU"
  bottom: "conv5"
  top: "conv5"
}
layer {
  name: "pool5"
  type: "Pooling"
  bottom: "conv5"
  top: "pool5"
  pooling_param {
    pool: MAX
    kernel_size: 3
    stride: 2
  }
}
layer {
  name: "fc6"
  type: "InnerProduct"
  bottom: "pool5"
  top: "fc6"
  param {
    lr_mult: 1
    decay_mult: 1
  }
  param {
    lr_mult: 2
    decay_mult: 0
  }
  inner_product_param {
    num_output: 4096
    weight_filler {
      type: "gaussian"
      std: 0.005
    }
    bias_filler {
      type: "constant"
      value: 1
    }
  }
}
layer {
  name: "relu6"
  type: "ReLU"
  bottom: "fc6"
  top: "fc6"
}
layer {
  name: "drop6"
  type: "Dropout"
  bottom: "fc6"
  top: "fc6"
  dropout_param {
    dropout_ratio: 0.5
  }
}
layer {
  name: "fc7"
  type: "InnerProduct"
  bottom: "fc6"
  top: "fc7"
  param {
    lr_mult: 1
    decay_mult: 1
  }
  param {
    lr_mult: 2
    decay_mult: 0
  }
  inner_product_param {
    num_output: 4096
    weight_filler {
      type: "gaussian"
      std: 0.005
    }
    bias_filler {
      type: "constant"
      value: 1
    }
  }
}
layer {
  name: "relu7"
  type: "ReLU"
  bottom: "fc7"
  top: "fc7"
}
layer {
  name: "drop7"
  type: "Dropout"
  bottom: "fc7"
  top: "fc7"
  dropout_param {
    dropout_ratio: 0.5
  }
}
layer {
  name: "fc8_snow"
  type: "InnerProduct"
  bottom: "fc7"
  top: "fc8_snow"
  param {
    lr_mult: 10
    decay_mult: 1
  }
  param {
    lr_mult: 20
    decay_mult: 0
  }
  inner_product_param {
    num_output: 2
    weight_filler {
      type: "gaussian"
      std: 0.01
    }
    bias_filler {
      type: "constant"
      value: 0
    }
  }
}
layer {
  name: "accuracy"
  type: "Accuracy"
  bottom: "fc8_snow"
  bottom: "label"
  top: "accuracy"
  include {
    phase: TEST
  }
}
layer {
  name: "loss"
  type: "SoftmaxWithLoss"
  bottom: "fc8_snow"
  bottom: "label"
  top: "loss"
}
I0901 14:42:07.600975 71629 layer_factory.hpp:76] Creating layer data
I0901 14:42:07.601006 71629 net.cpp:106] Creating Layer data
I0901 14:42:07.601014 71629 net.cpp:411] data -> data
I0901 14:42:07.601075 71629 net.cpp:411] data -> label
I0901 14:42:07.601099 71629 data_transformer.cpp:25] Loading mean file from: /l/vision/wang203/bagmodel/model/placesCNN_upgraded/places205CNN_mean.binaryproto
I0901 14:42:07.610831 71629 image_data_layer.cpp:36] Opening file /l/vision/wang203/bagmodel/data/snow.val
I0901 14:42:07.696517 71629 image_data_layer.cpp:51] A total of 183014 images.
I0901 14:42:07.701514 71629 image_data_layer.cpp:78] output data size: 50,3,227,227
I0901 14:42:07.749703 71629 net.cpp:150] Setting up data
I0901 14:42:07.749755 71629 net.cpp:157] Top shape: 50 3 227 227 (7729350)
I0901 14:42:07.749764 71629 net.cpp:157] Top shape: 50 (50)
I0901 14:42:07.749769 71629 net.cpp:165] Memory required for data: 30917600
I0901 14:42:07.749792 71629 layer_factory.hpp:76] Creating layer label_data_1_split
I0901 14:42:07.749820 71629 net.cpp:106] Creating Layer label_data_1_split
I0901 14:42:07.749827 71629 net.cpp:454] label_data_1_split <- label
I0901 14:42:07.749860 71629 net.cpp:411] label_data_1_split -> label_data_1_split_0
I0901 14:42:07.749872 71629 net.cpp:411] label_data_1_split -> label_data_1_split_1
I0901 14:42:07.749944 71629 net.cpp:150] Setting up label_data_1_split
I0901 14:42:07.749953 71629 net.cpp:157] Top shape: 50 (50)
I0901 14:42:07.749961 71629 net.cpp:157] Top shape: 50 (50)
I0901 14:42:07.749966 71629 net.cpp:165] Memory required for data: 30918000
I0901 14:42:07.749971 71629 layer_factory.hpp:76] Creating layer conv1
I0901 14:42:07.749989 71629 net.cpp:106] Creating Layer conv1
I0901 14:42:07.749996 71629 net.cpp:454] conv1 <- data
I0901 14:42:07.750006 71629 net.cpp:411] conv1 -> conv1
I0901 14:42:07.752336 71629 net.cpp:150] Setting up conv1
I0901 14:42:07.752363 71629 net.cpp:157] Top shape: 50 96 55 55 (14520000)
I0901 14:42:07.752369 71629 net.cpp:165] Memory required for data: 88998000
I0901 14:42:07.752391 71629 layer_factory.hpp:76] Creating layer relu1
I0901 14:42:07.752415 71629 net.cpp:106] Creating Layer relu1
I0901 14:42:07.752423 71629 net.cpp:454] relu1 <- conv1
I0901 14:42:07.752430 71629 net.cpp:397] relu1 -> conv1 (in-place)
I0901 14:42:07.752440 71629 net.cpp:150] Setting up relu1
I0901 14:42:07.752447 71629 net.cpp:157] Top shape: 50 96 55 55 (14520000)
I0901 14:42:07.752452 71629 net.cpp:165] Memory required for data: 147078000
I0901 14:42:07.752457 71629 layer_factory.hpp:76] Creating layer pool1
I0901 14:42:07.752468 71629 net.cpp:106] Creating Layer pool1
I0901 14:42:07.752473 71629 net.cpp:454] pool1 <- conv1
I0901 14:42:07.752480 71629 net.cpp:411] pool1 -> pool1
I0901 14:42:07.752524 71629 net.cpp:150] Setting up pool1
I0901 14:42:07.752533 71629 net.cpp:157] Top shape: 50 96 27 27 (3499200)
I0901 14:42:07.752565 71629 net.cpp:165] Memory required for data: 161074800
I0901 14:42:07.752573 71629 layer_factory.hpp:76] Creating layer norm1
I0901 14:42:07.752583 71629 net.cpp:106] Creating Layer norm1
I0901 14:42:07.752588 71629 net.cpp:454] norm1 <- pool1
I0901 14:42:07.752594 71629 net.cpp:411] norm1 -> norm1
I0901 14:42:07.752630 71629 net.cpp:150] Setting up norm1
I0901 14:42:07.752640 71629 net.cpp:157] Top shape: 50 96 27 27 (3499200)
I0901 14:42:07.752645 71629 net.cpp:165] Memory required for data: 175071600
I0901 14:42:07.752650 71629 layer_factory.hpp:76] Creating layer conv2
I0901 14:42:07.752662 71629 net.cpp:106] Creating Layer conv2
I0901 14:42:07.752668 71629 net.cpp:454] conv2 <- norm1
I0901 14:42:07.752676 71629 net.cpp:411] conv2 -> conv2
I0901 14:42:07.762977 71629 net.cpp:150] Setting up conv2
I0901 14:42:07.762992 71629 net.cpp:157] Top shape: 50 256 27 27 (9331200)
I0901 14:42:07.763000 71629 net.cpp:165] Memory required for data: 212396400
I0901 14:42:07.763011 71629 layer_factory.hpp:76] Creating layer relu2
I0901 14:42:07.763020 71629 net.cpp:106] Creating Layer relu2
I0901 14:42:07.763030 71629 net.cpp:454] relu2 <- conv2
I0901 14:42:07.763037 71629 net.cpp:397] relu2 -> conv2 (in-place)
I0901 14:42:07.763046 71629 net.cpp:150] Setting up relu2
I0901 14:42:07.763052 71629 net.cpp:157] Top shape: 50 256 27 27 (9331200)
I0901 14:42:07.763057 71629 net.cpp:165] Memory required for data: 249721200
I0901 14:42:07.763062 71629 layer_factory.hpp:76] Creating layer pool2
I0901 14:42:07.763072 71629 net.cpp:106] Creating Layer pool2
I0901 14:42:07.763077 71629 net.cpp:454] pool2 <- conv2
I0901 14:42:07.763084 71629 net.cpp:411] pool2 -> pool2
I0901 14:42:07.763120 71629 net.cpp:150] Setting up pool2
I0901 14:42:07.763130 71629 net.cpp:157] Top shape: 50 256 13 13 (2163200)
I0901 14:42:07.763135 71629 net.cpp:165] Memory required for data: 258374000
I0901 14:42:07.763141 71629 layer_factory.hpp:76] Creating layer norm2
I0901 14:42:07.763150 71629 net.cpp:106] Creating Layer norm2
I0901 14:42:07.763156 71629 net.cpp:454] norm2 <- pool2
I0901 14:42:07.763164 71629 net.cpp:411] norm2 -> norm2
I0901 14:42:07.763195 71629 net.cpp:150] Setting up norm2
I0901 14:42:07.763203 71629 net.cpp:157] Top shape: 50 256 13 13 (2163200)
I0901 14:42:07.763209 71629 net.cpp:165] Memory required for data: 267026800
I0901 14:42:07.763214 71629 layer_factory.hpp:76] Creating layer conv3
I0901 14:42:07.763226 71629 net.cpp:106] Creating Layer conv3
I0901 14:42:07.763232 71629 net.cpp:454] conv3 <- norm2
I0901 14:42:07.763240 71629 net.cpp:411] conv3 -> conv3
I0901 14:42:07.791122 71629 net.cpp:150] Setting up conv3
I0901 14:42:07.791149 71629 net.cpp:157] Top shape: 50 384 13 13 (3244800)
I0901 14:42:07.791155 71629 net.cpp:165] Memory required for data: 280006000
I0901 14:42:07.791180 71629 layer_factory.hpp:76] Creating layer relu3
I0901 14:42:07.791190 71629 net.cpp:106] Creating Layer relu3
I0901 14:42:07.791198 71629 net.cpp:454] relu3 <- conv3
I0901 14:42:07.791206 71629 net.cpp:397] relu3 -> conv3 (in-place)
I0901 14:42:07.791216 71629 net.cpp:150] Setting up relu3
I0901 14:42:07.791224 71629 net.cpp:157] Top shape: 50 384 13 13 (3244800)
I0901 14:42:07.791230 71629 net.cpp:165] Memory required for data: 292985200
I0901 14:42:07.791236 71629 layer_factory.hpp:76] Creating layer conv4
I0901 14:42:07.791246 71629 net.cpp:106] Creating Layer conv4
I0901 14:42:07.791252 71629 net.cpp:454] conv4 <- conv3
I0901 14:42:07.791261 71629 net.cpp:411] conv4 -> conv4
I0901 14:42:07.812208 71629 net.cpp:150] Setting up conv4
I0901 14:42:07.812224 71629 net.cpp:157] Top shape: 50 384 13 13 (3244800)
I0901 14:42:07.812232 71629 net.cpp:165] Memory required for data: 305964400
I0901 14:42:07.812252 71629 layer_factory.hpp:76] Creating layer relu4
I0901 14:42:07.812263 71629 net.cpp:106] Creating Layer relu4
I0901 14:42:07.812269 71629 net.cpp:454] relu4 <- conv4
I0901 14:42:07.812279 71629 net.cpp:397] relu4 -> conv4 (in-place)
I0901 14:42:07.812288 71629 net.cpp:150] Setting up relu4
I0901 14:42:07.812306 71629 net.cpp:157] Top shape: 50 384 13 13 (3244800)
I0901 14:42:07.812312 71629 net.cpp:165] Memory required for data: 318943600
I0901 14:42:07.812319 71629 layer_factory.hpp:76] Creating layer conv5
I0901 14:42:07.812330 71629 net.cpp:106] Creating Layer conv5
I0901 14:42:07.812336 71629 net.cpp:454] conv5 <- conv4
I0901 14:42:07.812345 71629 net.cpp:411] conv5 -> conv5
I0901 14:42:07.826386 71629 net.cpp:150] Setting up conv5
I0901 14:42:07.826402 71629 net.cpp:157] Top shape: 50 256 13 13 (2163200)
I0901 14:42:07.826409 71629 net.cpp:165] Memory required for data: 327596400
I0901 14:42:07.826434 71629 layer_factory.hpp:76] Creating layer relu5
I0901 14:42:07.826444 71629 net.cpp:106] Creating Layer relu5
I0901 14:42:07.826452 71629 net.cpp:454] relu5 <- conv5
I0901 14:42:07.826460 71629 net.cpp:397] relu5 -> conv5 (in-place)
I0901 14:42:07.826470 71629 net.cpp:150] Setting up relu5
I0901 14:42:07.826478 71629 net.cpp:157] Top shape: 50 256 13 13 (2163200)
I0901 14:42:07.826484 71629 net.cpp:165] Memory required for data: 336249200
I0901 14:42:07.826490 71629 layer_factory.hpp:76] Creating layer pool5
I0901 14:42:07.826500 71629 net.cpp:106] Creating Layer pool5
I0901 14:42:07.826506 71629 net.cpp:454] pool5 <- conv5
I0901 14:42:07.826514 71629 net.cpp:411] pool5 -> pool5
I0901 14:42:07.826547 71629 net.cpp:150] Setting up pool5
I0901 14:42:07.826556 71629 net.cpp:157] Top shape: 50 256 6 6 (460800)
I0901 14:42:07.826562 71629 net.cpp:165] Memory required for data: 338092400
I0901 14:42:07.826568 71629 layer_factory.hpp:76] Creating layer fc6
I0901 14:42:07.826578 71629 net.cpp:106] Creating Layer fc6
I0901 14:42:07.826586 71629 net.cpp:454] fc6 <- pool5
I0901 14:42:07.826592 71629 net.cpp:411] fc6 -> fc6
I0901 14:42:08.902029 71629 net.cpp:150] Setting up fc6
I0901 14:42:08.902063 71629 net.cpp:157] Top shape: 50 4096 (204800)
I0901 14:42:08.902070 71629 net.cpp:165] Memory required for data: 338911600
I0901 14:42:08.902084 71629 layer_factory.hpp:76] Creating layer relu6
I0901 14:42:08.902101 71629 net.cpp:106] Creating Layer relu6
I0901 14:42:08.902109 71629 net.cpp:454] relu6 <- fc6
I0901 14:42:08.902129 71629 net.cpp:397] relu6 -> fc6 (in-place)
I0901 14:42:08.902153 71629 net.cpp:150] Setting up relu6
I0901 14:42:08.902161 71629 net.cpp:157] Top shape: 50 4096 (204800)
I0901 14:42:08.902178 71629 net.cpp:165] Memory required for data: 339730800
I0901 14:42:08.902184 71629 layer_factory.hpp:76] Creating layer drop6
I0901 14:42:08.902211 71629 net.cpp:106] Creating Layer drop6
I0901 14:42:08.902230 71629 net.cpp:454] drop6 <- fc6
I0901 14:42:08.902250 71629 net.cpp:397] drop6 -> fc6 (in-place)
I0901 14:42:08.902333 71629 net.cpp:150] Setting up drop6
I0901 14:42:08.902353 71629 net.cpp:157] Top shape: 50 4096 (204800)
I0901 14:42:08.902357 71629 net.cpp:165] Memory required for data: 340550000
I0901 14:42:08.902374 71629 layer_factory.hpp:76] Creating layer fc7
I0901 14:42:08.902385 71629 net.cpp:106] Creating Layer fc7
I0901 14:42:08.902391 71629 net.cpp:454] fc7 <- fc6
I0901 14:42:08.902411 71629 net.cpp:411] fc7 -> fc7
I0901 14:42:09.359232 71629 net.cpp:150] Setting up fc7
I0901 14:42:09.359264 71629 net.cpp:157] Top shape: 50 4096 (204800)
I0901 14:42:09.359269 71629 net.cpp:165] Memory required for data: 341369200
I0901 14:42:09.359282 71629 layer_factory.hpp:76] Creating layer relu7
I0901 14:42:09.359293 71629 net.cpp:106] Creating Layer relu7
I0901 14:42:09.359299 71629 net.cpp:454] relu7 <- fc7
I0901 14:42:09.359308 71629 net.cpp:397] relu7 -> fc7 (in-place)
I0901 14:42:09.359330 71629 net.cpp:150] Setting up relu7
I0901 14:42:09.359349 71629 net.cpp:157] Top shape: 50 4096 (204800)
I0901 14:42:09.359354 71629 net.cpp:165] Memory required for data: 342188400
I0901 14:42:09.359360 71629 layer_factory.hpp:76] Creating layer drop7
I0901 14:42:09.359370 71629 net.cpp:106] Creating Layer drop7
I0901 14:42:09.359387 71629 net.cpp:454] drop7 <- fc7
I0901 14:42:09.359405 71629 net.cpp:397] drop7 -> fc7 (in-place)
I0901 14:42:09.359443 71629 net.cpp:150] Setting up drop7
I0901 14:42:09.359452 71629 net.cpp:157] Top shape: 50 4096 (204800)
I0901 14:42:09.359496 71629 net.cpp:165] Memory required for data: 343007600
I0901 14:42:09.359503 71629 layer_factory.hpp:76] Creating layer fc8_snow
I0901 14:42:09.359527 71629 net.cpp:106] Creating Layer fc8_snow
I0901 14:42:09.359532 71629 net.cpp:454] fc8_snow <- fc7
I0901 14:42:09.359554 71629 net.cpp:411] fc8_snow -> fc8_snow
I0901 14:42:09.360430 71629 net.cpp:150] Setting up fc8_snow
I0901 14:42:09.360445 71629 net.cpp:157] Top shape: 50 2 (100)
I0901 14:42:09.360450 71629 net.cpp:165] Memory required for data: 343008000
I0901 14:42:09.360456 71629 layer_factory.hpp:76] Creating layer fc8_snow_fc8_snow_0_split
I0901 14:42:09.360466 71629 net.cpp:106] Creating Layer fc8_snow_fc8_snow_0_split
I0901 14:42:09.360471 71629 net.cpp:454] fc8_snow_fc8_snow_0_split <- fc8_snow
I0901 14:42:09.360478 71629 net.cpp:411] fc8_snow_fc8_snow_0_split -> fc8_snow_fc8_snow_0_split_0
I0901 14:42:09.360510 71629 net.cpp:411] fc8_snow_fc8_snow_0_split -> fc8_snow_fc8_snow_0_split_1
I0901 14:42:09.360554 71629 net.cpp:150] Setting up fc8_snow_fc8_snow_0_split
I0901 14:42:09.360563 71629 net.cpp:157] Top shape: 50 2 (100)
I0901 14:42:09.360581 71629 net.cpp:157] Top shape: 50 2 (100)
I0901 14:42:09.360586 71629 net.cpp:165] Memory required for data: 343008800
I0901 14:42:09.360604 71629 layer_factory.hpp:76] Creating layer accuracy
I0901 14:42:09.360617 71629 net.cpp:106] Creating Layer accuracy
I0901 14:42:09.360636 71629 net.cpp:454] accuracy <- fc8_snow_fc8_snow_0_split_0
I0901 14:42:09.360643 71629 net.cpp:454] accuracy <- label_data_1_split_0
I0901 14:42:09.360662 71629 net.cpp:411] accuracy -> accuracy
…
